apps/meteor/public/mediapipe/selfie_segmenter_landscape.tflite (tflite, 250177 bytes, 109 tensors)

conv2d/Kernel f2 [16, 3, 3, 3]
00000000: e938 d133 ba34 ecac 0ab8 15b1 8eae 40b1
00000010: a9a5 bb33 43b8 9bb5 6f3c 1131 0737 5d38
00000020: 8e34 5b34 c534 6bae dbaf 4c2d 26b8 bfb7
00000030: faac 4ab3 fab5 22b8 65bc 95bc 62bc 8abd
00000040: aabc 46b7 8db9 b4b8 572d 1e31 00b5 8e35
00000050: 4a37 3d27 b7ab 9724 88b2 ec3b f03e 463b
00000060: 093c 683e 663b 7a37 1938 6738 1828 4eb2
00000070: 68b7 9134 c330 6eb4 7d2f 91a8 4bb5 f81f
00000080: 0cb4 80b8 ecb2 e3b5 98bb 8aaa e0b0 1eb4
00000090: afaa 14b6 39b4 db21 32b4 46b4 8a29 74b3
000000a0: 3aab eb38 5fa3 212e f73d 4435 5f35 73b7
000000b0: a7af f8ac ec39 e1ae 05a0 e93d 5730 2330
000000c0: 3ea7 a8ae dfa4 092d 7025 0428 8caf a3b3
000000d0: 50b4 15aa 3433 6833 5f3b eec0 6b3c 2a40
000000e0: 97c2 b33e 1c3c e8bc b938 203e 61c2 9a3f
000000f0: 1040 9bc5 993f a13a 66c0 793a e736 b4bd
00000100: 4135 9c3c 16be f13a 4431 32b4 4d9f 04b0
00000110: 11bb a034 772c 12bc 4839 2236 23b0 cb37
00000120: b03c 43b6 513d eb33 b6be 9139 aa2b deba
00000130: d430 9d30 56ba e82b 553c 37b8 9f39 fb37
00000140: c3b3 8927 ad39 c7bd 4b3d 3b3a 03c0 c13f
00000150: e2b6 acbd 5239 d839 22c1 cf3c c63c 41c3
00000160: 8041 023a 78be f33d 323a 88bc 303c 3ab5
00000170: 13c0 ad3c 9335 6eb9 243a d1bc 43bb 31ba
00000180: c7bc 69b4 97be 46ba afba 75bc 2f3d 6440
00000190: 763c d33d ae43 af3f b12f 5436 ea35 a3a6
000001a0: dcbb c0b5 d8af 36b8 50b0 ef32 74b9 82b2
000001b0: 14b8 9837 b538 f5bb 9a32 053a 44b0 ae34
000001c0: 4335 d7bc 5f34 023c b0bd ea36 b43d 56b8
000001d0: 0c35 5c39 c2b8 7e30 4637 f0b8 3e36 683a
000001e0: 1cb5 d12e ae33 ab41 b5c7 4bc9 cc49 093d
000001f0: 2fc0 4048 7bad 2ec4 bcc7 55c6 cbc3 2443
0.614 0.2443 0.2954 -0.0769 -0.505 -0.1588 -0.1024 -0.1641
-0.02211 0.2416 -0.5327 -0.3503 1.108 0.1583 0.4392 0.5454
0.2847 0.2722 0.298 -0.1003 -0.12274 0.08276 -0.5186 -0.4841
-0.07776 -0.2278 -0.3735 -0.5166 -1.099 -1.1455 -1.096 -1.385
-1.166 -0.4546 -0.694 -0.588 0.08344 0.1599 -0.3125 0.3472
0.4556 0.02827 -0.06027 0.01793 -0.2041 0.99 1.734 0.909
1.009 1.602 0.925 0.4673 0.512 0.5503 0.03198 -0.197
-0.463 0.2854 0.1488 -0.2769 0.117 -0.03568 -0.3308 0.007782
-0.253 -0.5625 -0.2163 -0.368 -0.949 -0.0511 -0.1523 -0.2573
-0.05222 -0.38 -0.264 0.01144 -0.2622 -0.267 0.04327 -0.2329
-0.05646 0.6147 -0.0144 0.09576 1.491 0.329 0.3357 -0.4656
-0.11957 -0.07764 0.74 -0.1075 -0.00785 1.478 0.1356 0.1293
-0.02829 -0.104 -0.01903 0.0787 0.02124 0.03137 -0.1179 -0.2386
-0.2695 -0.04752 0.2251 0.2314 0.9214 -2.465 1.1045 2.082
-3.295 1.675 1.027 -1.227 0.5903 1.531 -3.19 1.9
2.031 -5.605 1.899 0.8286 -2.2 0.809 0.4314 -1.426
0.3284 1.152 -1.521 0.8677 0.1646 -0.2622 -0.00713 -0.1255
-0.8833 0.289 0.06976 -1.018 0.66 0.3833 -0.1293 0.487
1.172 -0.3914 1.329 0.2474 -1.678 0.696 0.05988 -0.8584
0.1509 0.1442 -0.792 0.06177 1.083 -0.527 0.7026 0.4988
-0.2426 0.02943 0.7095 -1.444 1.323 0.779 -2.006 1.938
-0.4302 -1.418 0.665 0.7305 -2.566 1.202 1.193 -3.627
2.75 0.751 -1.617 1.487 0.7744 -1.133 1.047 -0.3267
-2.037 1.169 0.3484 -0.6787 0.7676 -1.204 -0.9077 -0.774
-1.194 -0.2756 -1.647 -0.784 -0.8354 -1.114 1.296 2.195
1.115 1.456 3.84 1.921 0.1202 0.3955 0.3696 -0.02592
-0.9824 -0.3594 -0.12256 -0.5264 -0.1348 0.2167 -0.6816 -0.2034
-0.51 0.4746 0.5884 -0.9946 0.2063 0.7524 -0.1333 0.2925
0.3289 -1.21 0.2732 1.002 -1.422 0.4321 1.426 -0.542
0.3154 0.67 -0.5947 0.1404 0.4546 -0.617 0.3901 0.801
-0.3193 0.1065 0.24 2.834 -7.707 -10.586 11.59 1.259
-2.092 8.5 -0.08563 -4.18 -7.734 -6.332 -3.896 3.57

conv2d/Bias f2 [16]
00000000: d03f 273a 9441 61bf 183f 8e3c 4134 493a
00000010: b634 a1b9 0141 a939 642f cc25 a434 a741
1.953 0.769 2.79 -1.845 1.773 1.139 0.2659 0.7856
0.2944 -0.7036 2.502 0.7075 0.1155 0.02264 0.29 2.826

conv2d_1/Kernel f2 [16, 1, 1, 16]
00000000: 10b1 75af 95b1 c7ad 0dac 4dab 8c25 f627
00000010: b621 9b21 7e24 6ca8 411f c3b1 9b27 6e31
00000020: b134 0b31 5e34 5135 ab31 c22b a5b7 7fa9
00000030: 3cb5 4ead b02c ae2f e0b0 f09f 35aa 7eb6
00000040: b730 9a30 12af 802e 5037 4735 8c32 0dae
00000050: d235 4ba6 6331 68ab 5ea5 2cb7 e3a9 5335
00000060: 47a7 5d30 6ab1 6d2c 5ba7 912e aba1 a71b
00000070: 1e2d d9a1 59ab 5330 7fab 49a3 19a9 c5ae
00000080: 21ac aa2e 142e 3bb1 2ba2 0024 1428 2729
00000090: 1cb0 1ba4 d02e e9a5 b3ac 91ad 8ba8 cf26
000000a0: 5b29 ee2c a638 b033 1729 beb1 82ba 5c2d
000000b0: 762e cd27 b01d a92f 3b34 9433 d2a4 36b0
000000c0: 16b0 beab 0cb3 01a7 a5a9 b823 d61f b626
000000d0: 4f30 2b22 3aab 5622 e229 23ae 9924 8825
000000e0: 0532 1d9c 9831 2f36 b92d 1331 9920 981c
000000f0: db31 e627 4aa5 fc36 2d9c 6b34 579c bfa8
00000100: b2ad 682e d436 7831 39a8 aa2e eda2 22ae
00000110: 98b2 e126 6f34 bf32 7030 b925 739a c831
00000120: b92a 87b4 1a2c 1e31 8aa4 28aa 9b1f 33b0
00000130: 0c10 e8a5 2c20 4029 31a2 2428 c2b8 af95
00000140: 2e2c 3630 0934 4b38 8236 169f 2330 8631
00000150: 2338 7b2b 7d36 8734 9934 fb33 99ab be2f
00000160: 9b37 ca17 8eae b8ac 14a8 16b3 4e2c 742c
00000170: 422d f40e d432 cc2e cca1 27af 4e9d 8ba9
00000180: aca8 10a1 3730 38ae 599f 78a9 bb9a c49a
00000190: efaf 6698 e62d 4daf b2a2 4ea9 b91d ce2c
000001a0: 32b6 0028 67b1 7f34 3eb6 34b0 8ca9 7833
000001b0: 8631 6c2b b437 5eb1 7f33 6535 eba5 7b39
000001c0: 0eb3 8e23 5035 cfaf b1b9 edba cab4 2524
000001d0: 1c2f e8a5 a6b6 0429 e027 7a34 4924 a3a8
000001e0: 57b5 c2ac bda9 03b1 a0b6 2eb1 d1b6 832c
000001f0: 1c32 f3a8 66af 2523 28a9 34b4 8198 09b0
-0.1582 -0.1165 -0.1744 -0.0903 -0.0633 -0.05704 0.02167 0.0311
0.011154 0.01095 0.01755 -0.03455 0.007084 -0.18 0.02971 0.1697
0.2932 0.1576 0.273 0.3323 0.1771 0.0606 -0.4778 -0.04294
-0.3271 -0.0829 0.07324 0.12 -0.1523 -0.00775 -0.0485 -0.4058
0.1473 0.1438 -0.1105 0.10156 0.457 0.3298 0.2046 -0.09454
0.3638 -0.02458 0.1683 -0.05786 -0.02097 -0.4482 -0.046 0.3328
-0.02843 0.1364 -0.1692 0.06915 -0.02873 0.1026 -0.01107 0.003736
0.07996 -0.01142 -0.0574 0.1351 -0.05856 -0.01423 -0.03983 -0.1058
-0.0645 0.1041 0.095 -0.1635 -0.01205 0.01563 0.03186 0.04025
-0.1284 -0.01604 0.10645 -0.02309 -0.0734 -0.087 -0.0355 0.0266
0.04184 0.077 0.581 0.2402 0.03976 -0.1794 -0.8135 0.08374
0.10095 0.03047 0.005554 0.1197 0.2644 0.2368 -0.01883 -0.1316
-0.1277 -0.0605 -0.2202 -0.02736 -0.0441 0.015076 0.007652 0.02621
0.1346 0.01205 -0.05646 0.012375 0.04596 -0.0959 0.01796 0.0216
0.1881 -0.004017 0.1748 0.3865 0.0894 0.1586 0.00898 0.004486
0.183 0.03085 -0.02066 0.4365 -0.004078 0.2761 -0.00424 -0.03708
-0.089 0.1001 0.4268 0.1709 -0.033 0.1041 -0.01353 -0.0958
-0.206 0.02687 0.277 0.2108 0.1387 0.02235 -0.003149 0.1807
0.05252 -0.283 0.0641 0.1599 -0.01773 -0.0481 0.007427 -0.1312
0.000494 -0.02307 0.00815 0.04102 -0.01209 0.03235 -0.5947 -0.001388
0.0653 0.1316 0.2522 0.5366 0.4067 -0.00692 0.1293 0.1726
0.517 0.05844 0.4055 0.283 0.2874 0.2494 -0.05936 0.121
0.4753 0.001902 -0.1024 -0.0737 -0.03186 -0.2214 0.06726 0.0696
0.08215 0.0004244 0.2134 0.1062 -0.01132 -0.11176 -0.00518 -0.0433
-0.0365 -0.00989 0.1317 -0.09717 -0.007175 -0.04272 -0.003286 -0.003304
-0.12396 -0.002148 0.09216 -0.1141 -0.01308 -0.04144 0.00559 0.0751
-0.3872 0.03125 -0.1688 0.281 -0.3901 -0.1313 -0.04333 0.2334
0.1726 0.05798 0.4814 -0.1677 0.2343 0.3372 -0.02312 0.685
-0.2205 0.014755 0.332 -0.122 -0.7114 -0.8657 -0.2993 0.01619
0.1111 -0.02307 -0.4155 0.03918 0.03076 0.2798 0.01674 -0.03622
-0.3337 -0.07434 -0.04483 -0.1566 -0.414 -0.1619 -0.426 0.0705
0.1909 -0.03867 -0.1156 0.013954 -0.04028 -0.2627 -0.0022 -0.1261

conv2d_1/Bias f2 [16]
00000000: db3e 5224 69bc cc3a 323d d9b1 103e 69bb
00000010: dfa3 a939 f4bf 1939 de3c a32f ad40 e140
1.714 0.01688 -1.103 0.8496 1.299 -0.1827 1.516 -0.9263
-0.01537 0.7075 -1.988 0.637 1.217 0.1193 2.338 2.44

depthwise_conv2d/Kernel f2 [1, 3, 3, 16]
00000000: ac3d b42d 2fac 6f30 232e 88ac 95c0 bdbc
00000010: 6f31 902c d1a9 11ba f1bd 00ad 442c 20b0
00000020: fbbb 4731 91ad 6434 3236 a4ae 293a febc
00000030: 9034 d22f ffab 25c1 ec2d 91ae 0d2d 1bb2
00000040: 70be 2c29 11a8 4ca4 c0ac e9a8 723f a62f
00000050: a32e 0c2a eba0 9c42 783d 65a9 f726 1fac
00000060: 4942 c22e 75ad c230 a931 8dac 16c3 5c34
00000070: d6a5 ae2f 42ab f8c2 29c2 20ad e12c 60b1
00000080: 26b5 3131 85ae 8a35 2c38 04af c335 1a32
00000090: cd28 4a33 98ad 4d29 2637 90ae 472e 1fb3
000000a0: 8abf 9c28 74a9 552e fb2f 15a8 a541 4434
000000b0: 4625 992f 7ba4 9242 8141 27a7 4b29 77ac
000000c0: 1b36 3ba2 02a7 e7ae 5fad baa6 09b6 803b
000000d0: 24a2 882b 299f fac1 39b8 aa9d 6c28 96aa
000000e0: 02ac 97a2 5da8 26a2 0dad f0a6 bc31 803b
000000f0: 28ae 2730 bfa3 1e41 c434 f7a2 de29 40ab
00000100: 4daf 34a8 35a3 91ad 5fb0 8c96 8631 c3b3
00000110: 141c f32c 5c20 7f35 b531 f522 ef24 f88b
1.418 0.0891 -0.06537 0.1385 0.0959 -0.0708 -2.291 -1.185
0.1698 0.0713 -0.04544 -0.7583 -1.485 -0.0781 0.06665 -0.1289
-0.9976 0.1649 -0.087 0.2744 0.3872 -0.10376 0.77 -1.248
0.2852 0.1222 -0.06247 -2.572 0.0925 -0.1026 0.0789 -0.1908
-1.609 0.0404 -0.03177 -0.01678 -0.0742 -0.03836 1.861 0.1195
0.1037 0.04724 -0.009605 3.305 1.367 -0.04214 0.0272 -0.0644
3.143 0.1056 -0.08527 0.1487 0.1769 -0.0711 -3.543 0.2725
-0.0228 0.12 -0.0567 -3.484 -3.08 -0.0801 0.07623 -0.168
-0.3218 0.1622 -0.10187 0.3462 0.5215 -0.1096 0.36 0.1907
0.0375 0.2278 -0.0874 0.0414 0.4468 -0.10254 0.0981 -0.2225
-1.885 0.036 -0.0426 0.09894 0.1247 -0.0319 2.822 0.2666
0.0206 0.1187 -0.0175 3.285 2.752 -0.02794 0.04135 -0.06976
0.3816 -0.01217 -0.02737 -0.10785 -0.0839 -0.02628 -0.3772 0.9375
-0.01199 0.05884 -0.006992 -2.988 -0.528 -0.00553 0.03455 -0.05145
-0.0626 -0.01287 -0.0341 -0.01201 -0.0789 -0.0271 0.1792 0.9375
-0.0962 0.1298 -0.01513 2.559 0.2979 -0.0136 0.04584 -0.05664
-0.1141 -0.03284 -0.01408 -0.087 -0.1366 -0.001598 0.1726 -0.2426
0.003983 0.07733 0.008514 0.3435 0.1783 0.01359 0.01927 -0.0002432

depthwise_conv2d/Bias f2 [16]
00000000: 9726 d7a6 343b cd90 4431 c03c ae28 ac23
00000010: 7112 1035 f23b 8736 0238 0f3c 793c 1c3c
0.02574 -0.02672 0.9004 -0.000586 0.1646 1.1875 0.03656 0.014984
0.0007863 0.3164 0.993 0.408 0.501 1.015 1.118 1.027

conv2d_2/Kernel f2 [8, 1, 1, 16]
00000000: 6e3b d03c 1b34 82a5 c030 86ab 59b1 b1b7
00000010: 5daf f81c fab3 7932 2ab8 672a 7833 f736
00000020: a530 1630 6fb0 d8bb 7b36 323a f7b5 69be
00000030: ddb8 6f29 4836 f932 09b8 8334 90b4 75b0
00000040: 8eb4 75b6 7caf dab6 e92c 2bb6 3db6 a037
00000050: 772e a82e cdb3 6c2f 64b8 e435 72b6 41b6
00000060: e8b7 8fb6 9e2c c831 fa39 78b6 4439 4d25
00000070: 9635 2b32 2eb5 3635 c636 8e2d 5435 68b8
00000080: f8b4 44aa 5428 11b7 a021 4137 e4a8 bfb3
00000090: 15b5 a136 82b1 c0be 72b4 de35 c731 6335
000000a0: 9a38 d930 15b9 f931 f836 e333 afb6 d3b0
000000b0: f9ab af33 a1b8 c4b2 e7b9 feba a63b 7833
000000c0: bf38 baad 7c2f f7b5 45ad b133 1ebc 6eba
000000d0: 09bd 97b8 0538 9e34 f4b9 3636 7439 19b5
000000e0: 6439 38b7 7eb7 3038 7db4 f233 0330 40b2
000000f0: b436 0521 04af dd36 4430 e830 e229 5239
0.9287 1.203 0.2566 -0.02151 0.1484 -0.05878 -0.1671 -0.4807
-0.11505 0.004852 -0.2493 0.2023 -0.5205 0.05002 0.2334 0.4353
0.1451 0.1277 -0.1385 -0.9805 0.405 0.7744 -0.3728 -1.603
-0.608 0.04245 0.3926 0.2179 -0.5044 0.282 -0.2852 -0.1393
-0.2847 -0.4036 -0.11694 -0.4282 0.0767 -0.3855 -0.39 0.4766
0.101 0.104 -0.2438 0.11597 -0.549 0.3682 -0.4028 -0.3909
-0.4941 -0.41 0.07214 0.1807 0.747 -0.4043 0.658 0.0207
0.349 0.1927 -0.3237 0.3257 0.4233 0.0868 0.333 -0.551
-0.3105 -0.04895 0.0338 -0.4417 0.01099 0.4534 -0.0382 -0.2421
-0.3176 0.4143 -0.1721 -1.6875 -0.2778 0.3667 0.1805 0.3367
0.575 0.1515 -0.6353 0.1866 0.4355 0.2465 -0.4177 -0.1508
-0.0623 0.2401 -0.5786 -0.2114 -0.738 -0.874 0.956 0.2334
0.5933 -0.0895 0.11694 -0.3728 -0.08234 0.2404 -1.029 -0.8037
-1.259 -0.5737 0.5024 0.2886 -0.744 0.3882 0.6816 -0.3186
0.674 -0.4512 -0.4683 0.5234 -0.2805 0.2483 0.1254 -0.1953
0.419 0.0098 -0.1096 0.429 0.1333 0.1533 0.04596 0.665

conv2d_2/Bias f2 [8]
00000000: 652d 4438 07ac 5732 c131 2434 7834 7d34
0.0843 0.533 -0.0629 0.1981 0.1798 0.2588 0.2793 0.2805

conv2d_3/Kernel f2 [16, 1, 1, 8]
00000000: 13b4 7334 96b2 b2b7 c236 b6b3 9533 42b8
00000010: aeb4 ed35 dfaf 99b0 c035 7bb9 0037 2233
00000020: d0bd 3636 a333 1529 56ad 87bb 112e b224
00000030: 1c34 b53c fdad 81ab 1234 a02d 3138 ecb1
00000040: 17b2 e1a3 06b3 29bc a12a 7bb2 4e3c 982f
00000050: 68b1 ed2f 90b1 4833 fd26 c4bb 7534 efb9
00000060: 24b5 4335 d930 76b8 cf36 50ae 0a36 52b8
00000070: 2db4 6337 502e 86b8 6438 05b2 c135 6cb1
00000080: fb2f df39 fd35 5a2c b9ae 67a9 3b35 51ad
00000090: c9aa 8737 0636 f726 c62a 34a8 6f30 5729
000000a0: 08ab d433 cd39 a5b7 ac31 89b5 ca2d c431
000000b0: 5bb5 e729 f037 efb8 7a3c 3e33 5fae 3fbb
000000c0: c0b2 8a34 30b1 5bb8 9735 1b2c 2e34 31b8
000000d0: febc 6736 f5b5 2834 cdad ec32 4434 0cb1
000000e0: 94b7 1136 86b4 7db4 452e 2bba 8d25 f0a8
000000f0: 00b8 252d 1a1e 7028 e1b0 ecb9 d42f c3b1
-0.2546 0.278 -0.2058 -0.481 0.4224 -0.241 0.2369 -0.532
-0.2925 0.3704 -0.123 -0.1437 0.3594 -0.685 0.4375 0.2229
-1.453 0.3882 0.2386 0.0397 -0.0834 -0.941 0.0948 0.01834
0.2568 1.177 -0.09357 -0.05862 0.2544 0.0879 0.524 -0.185
-0.1903 -0.01539 -0.2195 -1.04 0.0518 -0.2025 1.076 0.11865
-0.169 0.12384 -0.1738 0.2275 0.0273 -0.9707 0.2786 -0.7417
-0.3213 0.3289 0.1515 -0.5576 0.4255 -0.09863 0.3774 -0.54
-0.261 0.4617 0.09863 -0.5654 0.549 -0.1881 0.3596 -0.1694
0.1247 0.734 0.3743 0.068 -0.10504 -0.0422 0.327 -0.08307
-0.053 0.4705 0.3765 0.0272 0.05292 -0.03284 0.1385 0.04172
-0.05493 0.2446 0.725 -0.4778 0.1772 -0.346 0.09045 0.1802
-0.3347 0.0461 0.496 -0.6167 1.119 0.2263 -0.09955 -0.906
-0.2109 0.2837 -0.1621 -0.5444 0.3494 0.06415 0.2612 -0.524
-1.248 0.4001 -0.3723 0.2598 -0.09064 0.2163 0.2666 -0.1577
-0.4736 0.3792 -0.2827 -0.2805 0.09796 -0.771 0.02168 -0.03857
-0.5 0.0804 0.00596 0.03467 -0.1525 -0.74 0.1223 -0.18

conv2d_3/Bias f2 [16]
00000000: bcb5 e0b1 df30 97bc 83b3 b230 2cb5 d1b9
00000010: f3ba 2aaa 5b36 f7ba 4fb5 eebb ab2e 33b0
-0.3584 -0.1836 0.1522 -1.147 -0.2347 0.1467 -0.3232 -0.727
-0.8687 -0.04816 0.3972 -0.8706 -0.3318 -0.991 0.1042 -0.1312

conv2d_4/Kernel f2 [16, 1, 1, 16]
00000000: 77b8 93c0 2235 ab47 aac9 1b48 f7c1 b1bb
00000010: 5fb7 b3bc 1b3d 6540 3e35 7ec1 dbc6 133c
00000020: 3a3f f538 ebc5 cd45 ccb2 c53c a843 a93c
00000030: c839 f144 3bc1 24c6 bc42 aac1 2641 5fc1
00000040: 8f32 f93e 494b 3bb9 5b3f a9ca 48bd 26b9
00000050: 083b 503c 3b46 5dc4 7734 82c4 3c40 87c2
00000060: 9cbf 0737 eac1 01be 34c5 9940 7cbd 6ec0
00000070: 61c7 d145 bab4 5c45 f143 8140 d8be 9725
00000080: f8c2 8bb9 c9ba 2540 1e44 6d31 4bc2 3535
00000090: f144 14c5 91c0 bb44 cd46 99be 18b2 06b1
000000a0: 0fbc 01c6 43c3 72be 1242 9441 f93b 7dba
000000b0: dfae 8b40 ecbc 9446 c2c1 1aca c946 7db9
000000c0: eb3f 4fb7 3642 1844 2cc7 dec1 4338 b845
000000d0: d8c0 e8b7 11bc b242 b842 a1be 053f 853d
000000e0: d4b6 84c4 1f3d 2dc0 9140 1fc3 c8c0 743d
000000f0: 2e39 3c3f 2b4a 3e46 d23c 33c4 e1c1 7ec8
00000100: 47bd 9cbb 78c4 0ac2 9ac0 dd40 c63a 31b9
00000110: d925 97c1 a448 1cbe d5bb ebbe e9c2 f6c6
00000120: 6d3e 4ec5 51c8 6b2e d93c 7b45 cebe f5b1
00000130: 3530 19bc d7c1 05be 11be bbc7 2a47 47c1
00000140: 2cc6 2340 903c f444 a9c4 18b5 36c5 48c7
00000150: 1ebe 5b39 3ab4 feb7 06c1 cf3d 6cbc a4b7
00000160: 9039 1e3f 8144 9f42 d4c6 75c8 403c 34c1
00000170: 893e fdbb ba3d e147 59bf 3bbd 5949 50c5
00000180: 2740 b83c 1ac1 21c6 55bc 47b8 c340 86c0
00000190: 33c0 73be aebb 26c4 4948 18c0 bb47 6c42
000001a0: 8b3c 6c3f 273b 64c0 d744 6d3f 6cc0 1cbf
000001b0: 313f 4142 e4c0 3c44 7f3a 9d36 efc2 3c40
000001c0: f72d 5746 20c0 3dc2 5f44 aabd f23a 1c3c
000001d0: 0eb5 e8ba 0ec1 5c48 1ec2 9946 f73e c644
000001e0: 8c49 16b6 5c40 ee40 abc1 a730 ff49 92c1
000001f0: 4fb5 52b6 bab5 0840 4f45 2db9 0cbd 7e34
-0.558 -2.287 0.3208 7.668 -11.33 8.21 -2.982 -0.9614
-0.4607 -1.175 1.276 2.197 0.3276 -2.746 -6.855 1.019
1.807 0.6196 -5.918 5.8 -0.2124 1.192 3.828 1.165
0.7227 4.94 -2.615 -6.14 3.367 -2.832 2.574 -2.686
0.205 1.743 14.57 -0.654 1.839 -13.32 -1.32 -0.6436
0.879 1.078 6.23 -4.363 0.279 -4.508 2.117 -3.264
-1.902 0.4392 -2.957 -1.501 -5.203 2.299 -1.371 -2.215
-7.38 5.816 -0.2954 5.36 3.97 2.252 -1.711 0.02184
-3.484 -0.693 -0.848 2.072 4.117 0.1696 -3.146 0.3254
4.94 -5.08 -2.283 4.73 6.8 -1.649 -0.1904 -0.157
-1.015 -6.004 -3.63 -1.611 3.035 2.79 0.9966 -0.811
-0.10736 2.271 -1.23 6.58 -2.879 -12.2 6.785 -0.686
1.9795 -0.4568 3.105 4.094 -7.17 -2.934 0.5327 5.72
-2.422 -0.4941 -1.017 3.348 3.36 -1.657 1.755 1.38
-0.4268 -4.516 1.28 -2.088 2.283 -3.56 -2.39 1.363
0.6475 1.809 12.336 6.242 1.205 -4.2 -2.94 -8.984
-1.319 -0.951 -4.47 -3.02 -2.3 2.432 0.8467 -0.649
0.02284 -2.795 9.28 -1.527 -0.979 -1.7295 -3.455 -6.96
1.606 -5.305 -8.63 0.1003 1.212 5.48 -1.701 -0.1862
0.1315 -1.024 -2.92 -1.505 -1.517 -7.73 7.164 -2.639
-6.17 2.068 1.141 4.953 -4.66 -0.3184 -5.21 -7.28
-1.529 0.6694 -0.2642 -0.4995 -2.512 1.452 -1.105 -0.4775
0.6953 1.779 4.504 3.31 -6.83 -8.914 1.0625 -2.602
1.634 -0.9985 1.432 7.88 -1.837 -1.308 10.695 -5.312
2.076 1.18 -2.55 -6.13 -1.083 -0.5347 2.38 -2.262
-2.1 -1.612 -0.96 -4.15 8.57 -2.047 7.73 3.21
1.136 1.855 0.894 -2.195 4.84 1.856 -2.21 -1.777
1.798 3.127 -2.445 4.234 0.812 0.4133 -3.467 2.117
0.0932 6.34 -2.062 -3.12 4.37 -1.416 0.868 1.027
-0.316 -0.8633 -2.527 8.72 -3.059 6.598 1.741 4.773
11.09 -0.3804 2.18 2.465 -2.834 0.1454 11.99 -2.785
-0.3318 -0.395 -0.358 2.016 5.31 -0.647 -1.262 0.2808

conv2d_4/Bias f2 [16]
00000000: 023e 97c2 86bc f738 9f39 37bd e2b3 d3be
00000010: 6e41 de2f 073d dbbc fe31 6ebb 9cb3 ffb8
1.502 -3.295 -1.131 0.6206 0.7026 -1.304 -0.2463 -1.706
2.715 0.1229 1.257 -1.214 0.1873 -0.9287 -0.2378 -0.6245

conv2d_5/Kernel f2 [72, 1, 1, 16]
00000000: 2bb4 322e 9e34 bb26 fbb0 b7a7 d932 0b35
00000010: 2334 d5b2 9124 5c38 7b31 a0b4 7b9d a0ac
00000020: b224 f628 d3a5 b8a7 902e 77a9 172c 0a2b
00000030: 69a4 42a4 5e9d a39f 972a 439c c3a7 2a1f
00000040: 9fb2 95b0 21b0 68b1 30ac 04ac deae 44b5
00000050: a62c b4ad 51b0 cfa6 fb2d 2531 be35 b52a
00000060: c0a8 9ea4 8cac b9b4 b2aa b328 4f25 22ac
00000070: 9a2a 761f 6fab db28 8db2 41a5 ae2b 2322
00000080: e1ad 0e29 d9a5 c1af 1d32 02a8 a79d 432a
00000090: 8ea4 3a9d 5d1c bca7 29a7 a229 eb9e 27a6
000000a0: 0caf 452e a5ad 31b2 41a8 0430 5baa 6f9d
000000b0: a92a 57b0 61b6 e2a3 a629 4aad b0a0 d93c
000000c0: 1a2c 592b aea8 1a26 632f 21a9 fb2e 7324
000000d0: 21ab 19a8 ac2b 0826 2d26 15a6 5eaf 7c2a
000000e0: 201c e02a c4ac 7195 b91c 9d2e 2aa8 e428
000000f0: 9e26 c032 34a9 8024 052b a40f e3a8 bca0
00000100: 862f fb29 0b23 bb2a 3aaa 10a1 072c eaa9
00000110: 16aa ab92 172a c429 17a7 e8ab b3a4 7991
00000120: 4625 b62f 92a1 97ac 5035 05b1 e12b 1a2e
00000130: 4f12 67a4 01ad 9ca1 a82d c4a6 e51e 09a9
00000140: 76ac 272c eaa4 ccaf 1133 89a9 8a1d 582c
00000150: 22a9 8f9f b228 8ba8 87a2 e329 9ba4 d71e
00000160: 6b9b 4932 bf31 0c39 69b0 482c f2b5 992f
00000170: f4b4 1baa ef32 09aa a230 e735 f5b2 77b0
00000180: f7ab de20 6b31 7c98 c6ac d42e bd2f 5735
00000190: 7430 08a6 90b1 9b2b 4526 48b0 aca8 26ae
000001a0: e1b6 97ad 8333 51b1 75a4 4ab2 29a5 da2f
000001b0: 7baf 5db0 6ba9 48a3 eeb1 be30 7928 f7a7
000001c0: c72c 0f2b 1f22 1e2e efaa 48ac 8421 16a8
000001d0: 94a6 45a3 1430 602c 7125 6927 e9a1 2a2a
000001e0: 9e31 d3b6 89b6 2138 2738 3f39 6534 ee37
000001f0: 28b5 3bb7 2eb5 fd36 e9b4 e734 f438 db32
-0.2605 0.0968 0.2886 0.02629 -0.1556 -0.03014 0.214 0.3152
0.2585 -0.2135 0.01784 0.545 0.1713 -0.289 -0.005352 -0.07227
0.01834 0.03876 -0.02275 -0.03015 0.10254 -0.0427 0.0639 0.055
-0.01723 -0.01663 -0.00524 -0.007458 0.05148 -0.00416 -0.03032 0.006996
-0.2069 -0.1432 -0.129 -0.169 -0.0654 -0.06274 -0.1073 -0.329
0.07263 -0.0891 -0.1349 -0.0266 0.09344 0.1608 0.359 0.0524
-0.0371 -0.01804 -0.07104 -0.2952 -0.0523 0.0367 0.02074 -0.0646
0.05157 0.007286 -0.05807 0.03793 -0.2047 -0.02052 0.06 0.011986
-0.09186 0.0395 -0.02284 -0.12115 0.191 -0.0313 -0.00552 0.04892
-0.01779 -0.005104 0.00426 -0.03021 -0.02797 0.044 -0.006756 -0.02403
-0.1101 0.09796 -0.0882 -0.1935 -0.03323 0.1255 -0.04965 -0.005306
0.05203 -0.1356 -0.3987 -0.015396 0.04413 -0.08264 -0.009155 1.212
0.0641 0.0574 -0.03656 0.02383 0.1154 -0.04007 0.1091 0.01738
-0.0557 -0.032 0.05994 0.02356 0.02412 -0.02376 -0.1151 0.05066
0.00403 0.0537 -0.07446 -0.001328 0.004612 0.10333 -0.03253 0.0382
0.02585 0.2109 -0.04065 0.01758 0.05484 0.0004663 -0.03818 -0.00925
0.11755 0.04672 0.013756 0.05258 -0.04865 -0.00989 0.0629 -0.0462
-0.04755 -0.000814 0.04758 0.04504 -0.0277 -0.06177 -0.01836 -0.000668
0.0206 0.1205 -0.01088 -0.0717 0.332 -0.1569 0.06155 0.09534
0.00077 -0.0172 -0.0782 -0.010956 0.0884 -0.02643 0.006733 -0.03934
-0.0697 0.0649 -0.0192 -0.1218 0.2208 -0.04324 0.00541 0.0679
-0.0401 -0.00738 0.03668 -0.0355 -0.01275 0.046 -0.01799 0.00668
-0.003622 0.1964 0.1796 0.631 -0.1378 0.0669 -0.3716 0.1187
-0.3096 -0.0477 0.2167 -0.04715 0.1448 0.369 -0.2174 -0.1395
-0.06223 0.00951 0.1693 -0.00219 -0.0746 0.1067 0.1209 0.3337
0.1392 -0.02356 -0.1738 0.05942 0.02449 -0.1338 -0.0365 -0.09607
-0.43 -0.08734 0.2347 -0.1661 -0.01741 -0.1965 -0.02016 0.1227
-0.1169 -0.1364 -0.04233 -0.01422 -0.1853 0.1482 0.03494 -0.03111
0.07465 0.05515 0.011955 0.0956 -0.05417 -0.0669 0.01077 -0.03192
-0.0257 -0.0142 0.1274 0.06836 0.02126 0.02895 -0.01154 0.04816
0.1755 -0.4265 -0.4084 0.516 0.519 0.656 0.2747 0.4956
-0.3223 -0.452 -0.3237 0.4368 -0.307 0.3064 0.619 0.2142

conv2d_5/Bias f2 [72]
00000000: 3333 3b3d feb9 443d 183d 033c 4c3c f13c
00000010: 7d3c 253c b43c d631 153c 753a 423b bb37
00000020: fa9d ce3c 763c 723b 0a3c 7b3c 623b b639
00000030: a33c 8d2f b43c 2d3b 693c 373c f6ad 1d3b
00000040: 42b1 953d 0fa2 123d 633d 6930 093d 923c
00000050: 3fbb db3d 653c e93c ab3c 9aa8 6a3d ae38
00000060: 0c3d 053b 083c 753c 6f3c 593e 6a3b 003e
00000070: 313b 813e e33c 5dbd db3c 7e3c c738 e73e
00000080: 6340 71bb a83c 3a3a 193a 593d 453c 8e3a
0.225 1.308 -0.749 1.316 1.273 1.003 1.074 1.235
1.122 1.036 1.176 0.1824 1.0205 0.807 0.907 0.4832
-0.005836 1.201 1.115 0.9307 1.01 1.12 0.923 0.714
1.159 0.118 1.176 0.897 1.103 1.054 -0.09314 0.889
-0.1643 1.3955 -0.01183 1.268 1.347 0.1378 1.259 1.143
-0.906 1.464 1.099 1.228 1.167 -0.03595 1.354 0.585
1.262 0.8774 1.008 1.114 1.108 1.587 0.927 1.5
0.899 1.626 1.222 -1.341 1.214 1.123 0.597 1.726
2.193 -0.93 1.164 0.7783 0.762 1.337 1.067 0.8193

depthwise_conv2d_1/Kernel f2 [1, 3, 3, 72]
00000000: 2eb0 3f3b 622c ba30 0443 5ca6 4534 dec0
00000010: 03c1 7431 942c 12b9 13b1 12ae d63b a2b4
00000020: 9434 023b 5d37 a7be e1bc 7fbe 0441 5c38
00000030: 372d a6af 2838 4fb1 2fbd 3ab9 efb0 3831
00000040: f3ad 3cbe 26af 70b2 58bc b688 9eba 2e36
00000050: ab27 d6b2 76bd 09b4 8e33 60b4 f114 842d
00000060: 4e3c 05bb 10b9 2fbc 55bd 8338 8840 8b3e
00000070: f5c0 fa2b 8b3b 7933 fdb8 8128 81b3 0d41
00000080: b6a9 56b3 f7b9 e5b1 0d27 3abe 6ec0 0cb9
00000090: 37b4 6230 c535 c8af 9fc5 44a9 6ebe 9cbc
000000a0: 6031 4e39 8538 adb6 25b1 b4b4 b03f 97b6
000000b0: 5235 28b8 95b5 68ba 72b2 9ac1 21be e2b5
000000c0: 0e3e 87b4 d139 c73c 5141 c2ba 4eae 6833
000000d0: 17b0 5641 65b2 83b2 273b f699 e9bc e940
000000e0: 782e 0c25 e4bf 07b1 893c 10b1 3f3c 6b31
000000f0: 93bc f6c0 f3bd 85be 14b2 5b3c 4d3b d13a
00000100: e739 0334 a6af 2a36 c5bc 743c a7b4 b73a
00000110: bead 21b4 3f3c 23b4 e335 12c0 2941 04bc
00000120: b5ad 9232 3d30 80b4 4c40 56ae 393d 2a3a
00000130: 5540 8937 e1b6 9d2e 8aa2 aca5 1c38 c0b0
00000140: 6629 ebbc 50bf e939 0c34 cebc 53bc d4b8
00000150: b83d afb2 ac36 2638 9abc cd2d 639a b928
00000160: 25ad e4ba 09ac f1b0 143f 209c 633a 89bf
00000170: 4229 9539 ddba 00b0 60b8 582d 8935 722e
00000180: 47bc c1bd 9cb7 ebb8 a03e 8bac 74c1 482b
00000190: 433c f62b b4c0 4e33 a9b7 4834 eab2 a22a
000001a0: 0eb0 44af 3f35 3ab0 8eae cdb9 1eba 01b8
000001b0: 9cb3 3c39 d52f d4be d7c1 a8b0 2b41 37c1
000001c0: 79c3 8f2c 3e3d 55b7 cdb1 f1b1 d4be a9b2
000001d0: 4636 c63f 9539 ebbf c73b c13d 6ac0 873c
000001e0: 1cbe 89b4 02c0 e0be 32c2 68bb 1fb0 6a32
000001f0: 14b3 043f 90b2 5baf 46c1 8731 14c0 1bc2
-0.1306 0.906 0.0685 0.1477 3.508 -0.02484 0.2668 -2.434
-2.506 0.1704 0.07153 -0.634 -0.1586 -0.09485 0.9795 -0.2896
0.2861 0.876 0.4602 -1.663 -1.22 -1.624 2.508 0.545
0.0815 -0.1195 0.5195 -0.1659 -1.296 -0.6533 -0.1542 0.1631
-0.09296 -1.559 -0.1117 -0.2012 -1.086 -0.0001438 -0.827 0.3862
0.02995 -0.2136 -1.365 -0.2522 0.2361 -0.2734 0.001206 0.0862
1.076 -0.8774 -0.633 -1.046 -1.333 0.564 2.266 1.636
-2.479 0.06232 0.943 0.2335 -0.6235 0.0352 -0.2345 2.525
-0.04462 -0.2292 -0.7456 -0.1842 0.02754 -1.557 -2.215 -0.631
-0.2634 0.137 0.3606 -0.1216 -5.62 -0.04114 -1.607 -1.152
0.168 0.663 0.565 -0.4172 -0.1608 -0.294 1.922 -0.4119
0.3325 -0.5195 -0.3489 -0.801 -0.2014 -2.8 -1.532 -0.3677
1.514 -0.283 0.727 1.194 2.658 -0.8447 -0.0985 0.2314
-0.1278 2.668 -0.1998 -0.2035 0.894 -0.00291 -1.228 2.455
0.1011 0.01971 -1.973 -0.1571 1.134 -0.1582 1.062 0.1693
-1.144 -2.48 -1.487 -1.63 -0.19 1.089 0.9126 0.852
0.738 0.2507 -0.1195 0.3853 -1.192 1.113 -0.2908 0.8394
-0.0897 -0.258 1.062 -0.2585 0.368 -2.035 2.58 -1.004
-0.0892 0.2053 0.1324 -0.2812 2.148 -0.099 1.306 0.7705
2.166 0.471 -0.43 0.10333 -0.01277 -0.02216 0.5137 -0.1484
0.04218 -1.2295 -1.828 0.739 0.253 -1.201 -1.081 -0.6035
1.43 -0.2089 0.417 0.5186 -1.15 0.09064 -0.003119 0.0369
-0.0804 -0.8613 -0.06305 -0.1544 1.77 -0.00403 0.7983 -1.884
0.04108 0.6978 -0.858 -0.125 -0.547 0.0835 0.346 0.1007
-1.069 -1.438 -0.4756 -0.6147 1.656 -0.071 -2.727 0.0569
1.065 0.0622 -2.352 0.2283 -0.4788 0.2676 -0.2161 0.05182
-0.1267 -0.1135 0.328 -0.1321 -0.1024 -0.725 -0.7646 -0.5005
-0.2378 0.6543 0.1224 -1.707 -2.92 -0.1455 2.584 -2.607
-3.736 0.0712 1.311 -0.4583 -0.1813 -0.1857 -1.707 -0.2081
0.392 1.943 0.6978 -1.9795 0.972 1.438 -2.207 1.132
-1.527 -0.2834 -2.004 -1.719 -3.098 -0.926 -0.1288 0.2004
-0.2212 1.754 -0.2051 -0.1149 -2.637 0.1727 -2.04 -3.053

depthwise_conv2d_1/Bias f2 [72]
00000000: 3c3a 6db5 6432 fbb2 902d d63f 1aa6 2bb0
00000010: 0430 a31e 76b0 37b5 073f 4f40 6dab 2040
00000020: a2b4 342b 0eac 362a f7a3 78b1 f8a5 fc30
00000030: c739 2e43 daad d1ae 4125 1632 aa3f dab5
00000040: df3e a8b0 023f a43c 6eaf fd33 a4b0 29b2
00000050: 9629 bea3 49ab 133e b8b2 ff3e d51d cc2d
00000060: a224 f1b3 c6a8 5f2c ccb0 2131 1432 05b6
00000070: 6dac 0733 67b3 4a2a 2ca6 7027 f140 502e
00000080: ba3d 2c3c 13ac 923f cabb 3529 0e31 2e2d
0.7793 -0.339 0.1997 -0.2181 0.0869 1.959 -0.02383 -0.1302
0.1255 0.00648 -0.1394 -0.326 1.757 2.154 -0.058 2.062
-0.2896 0.05627 -0.06335 0.04852 -0.01556 -0.1709 -0.02332 0.1558
0.722 3.59 -0.09143 -0.1065 0.02052 0.1902 1.916 -0.3657
1.718 -0.1455 1.752 1.16 -0.1161 0.2496 -0.145 -0.1925
0.04364 -0.01512 -0.05692 1.519 -0.21 1.749 0.005695 0.0906
0.0181 -0.2482 -0.0373 0.0683 -0.1499 0.1603 0.19 -0.3762
-0.06915 0.2196 -0.2313 0.04913 -0.02411 0.02905 2.47 0.09863
1.432 1.043 -0.06366 1.893 -0.9736 0.04068 0.158 0.08093

conv2d_6/Kernel f2 [24, 1, 1, 72]
00000000: 8cb0 9721 fe2a bb29 48ad 0231 8f2c 1832
00000010: 62a9 9dac 89ae cb30 4eac e0b1 eb33 ab36
00000020: 002b b6ad 16aa 802d 4630 c132 e7a9 1332
00000030: c330 5f39 1a31 91b0 5130 c029 a033 e92d
00000040: 5a2d 69a1 382e a330 d99f 98b4 8430 6ba4
00000050: 0a2f f3ae e832 83b2 5932 5dac 4321 71b2
00000060: 60b0 ac31 362d c532 f028 b02e 442c 2f32
00000070: fc2c 07a2 71b3 ffac e130 e22e 9231 f230
00000080: 63aa c82d dba6 a431 6830 1e32 cf2c 6432
00000090: d72b d8ab 04b0 1030 aeaf 832b c30a 3532
000000a0: 2a34 222c 0ab0 9c34 4729 09a8 342d 2e25
000000b0: 0935 9da1 47ac d22a 0f30 752f 5eb0 6831
000000c0: 78a7 d2b0 2234 0a27 47ae 2832 06ac 5e20
000000d0: e42a 3325 2a23 26a6 e82e 6730 852e bfad
000000e0: 7a2d af2a 162c 0c95 23ae 2034 80b4 1430
000000f0: 49b0 5cac c42e 0d2f 6532 fd2b 7c30 e432
00000100: ab2b 7d2f 51a5 0b31 8d30 9b2c 9923 53ac
00000110: e22f 57b0 7fa8 5e27 1bac 8b2f d126 a92c
00000120: b6a8 2636 4caf dead 1230 2b2f f82a 54b2
00000130: 7ea3 0732 5131 c5a0 e530 bba9 f6a8 3bac
00000140: b832 f32a a82b 76b4 cdb4 a8af 1430 71aa
00000150: e933 c82f 42b5 5433 de24 40ad f9b0 fbb6
00000160: 2eb1 d21f c7ae 46b4 1b2a 46ac 33b5 6b32
00000170: 8230 dbad deb4 36b2 2fb2 1fa9 1031 aca9
00000180: 4931 452e eaa2 caac 22ab 2bad d929 d9af
00000190: deb4 a0a4 c42e 4b30 58ab 6bac 572a e6ad
000001a0: af2d 8cb0 a831 14ae 7db1 72b1 c3a8 7aab
000001b0: f2b3 d521 3c30 f3a8 e628 7e2e 51af c121
000001c0: d6a9 2728 e92a 07b1 84b1 ba29 d7b0 0ab1
000001d0: 591d 262d fb31 5aa5 f7a6 5f2b 0d2d 28ad
000001e0: b9aa 1931 1eae 5d30 17ad 8dac 6fa9 2e30
000001f0: f01c 212a 7f30 deb0 2926 aa2b 17b0 4ea4
-0.1421 0.01092 0.05463 0.04477 -0.0825 0.1565 0.0712 0.1904
-0.04205 -0.0721 -0.1021 0.1498 -0.06726 -0.1836 0.2474 0.4167
0.0547 -0.08923 -0.04755 0.08594 0.1335 0.211 -0.0461 0.1898
0.1488 0.6714 0.1594 -0.1427 0.1349 0.04492 0.2383 0.09235
0.0836 -0.01057 0.09717 0.1449 -0.007664 -0.287 0.1411 -0.01726
0.11 -0.1086 0.2158 -0.2035 0.1984 -0.0682 0.01028 -0.2013
-0.1367 0.1772 0.0814 0.2115 0.03857 0.1045 0.06665 0.1932
0.0779 -0.01177 -0.2325 -0.07806 0.1525 0.10754 0.1741 0.1545
-0.0499 0.09033 -0.02678 0.1763 0.1377 0.1912 0.07513 0.1997
0.06125 -0.06128 -0.1255 0.127 -0.12 0.0587 0.0002064 0.194
0.2603 0.0646 -0.1262 0.288 0.04123 -0.03152 0.0813 0.02023
0.3147 -0.01096 -0.06683 0.05328 0.1268 0.1165 -0.1365 0.169
-0.02917 -0.1506 0.2583 0.0275 -0.0981 0.1924 -0.06287 0.00853
0.05383 0.02031 0.01399 -0.02402 0.1079 0.1376 0.10187 -0.0898
0.0856 0.05222 0.06384 -0.001232 -0.0959 0.2578 -0.2812 0.1274
-0.1339 -0.0681 0.1057 0.11017 0.1998 0.0624 0.1401 0.2153
0.0599 0.117 -0.02077 0.1576 0.1422 0.07196 0.01484 -0.06757
0.12317 -0.1356 -0.03513 0.02878 -0.06415 0.11786 0.02663 0.0728
-0.0368 0.3843 -0.114 -0.0917 0.1272 0.112 0.05444 -0.1978
-0.01463 0.1884 0.1661 -0.009315 0.153 -0.04477 -0.03876 -0.0661
0.21 0.0543 0.0598 -0.2788 -0.3 -0.1196 0.1274 -0.05032
0.2472 0.1216 -0.3286 0.229 0.01901 -0.08203 -0.1554 -0.4363
-0.1619 0.007637 -0.1059 -0.267 0.0477 -0.0668 -0.325 0.2006
0.1409 -0.0915 -0.3042 -0.1941 -0.1932 -0.04 0.1582 -0.0443
0.1652 0.09796 -0.013504 -0.0748 -0.05573 -0.08075 0.0457 -0.1226
-0.3042 -0.01807 0.1057 0.1342 -0.05737 -0.06903 0.04953 -0.09216
0.0888 -0.1421 0.1768 -0.095 -0.1715 -0.1702 -0.0372 -0.0584
-0.2483 0.01139 0.1323 -0.03867 0.03827 0.10144 -0.1143 0.01124
-0.0456 0.03244 0.054 -0.1571 -0.1724 0.04474 -0.1512 -0.1575
0.005222 0.08044 0.1869 -0.0209 -0.0272 0.0576 0.0789 -0.08057
-0.05252 0.1593 -0.0956 0.1364 -0.0795 -0.0711 -0.04245 0.1306
0.00482 0.04788 0.1405 -0.1521 0.02406 0.05988 -0.1278 -0.01682

conv2d_6/Bias f2 [24]
00000000: 0fc4 0fbd 0339 07bb 0c3a 4fba c53a 2236
00000010: 8bbd 56bb f03c 13b3 4630 892e 0c2d bfab
00000020: 3cad e2b5 de3a f340 5024 54be bab9 b7b1
-4.06 -1.265 0.6265 -0.8784 0.756 -0.7886 0.846 0.3833
-1.386 -0.917 1.234 -0.2211 0.1335 0.1021 0.07886 -0.06052
-0.0818 -0.3677 0.8584 2.475 0.01685 -1.582 -0.716 -0.1786

conv2d_7/Kernel f2 [88, 1, 1, 24]
00000000: ae2e 8630 dc36 9cb6 8cac daba 0936 ab2c
00000010: f624 13af 8e18 c427 5d31 6aae 5fad fc2b
00000020: 33ac d4a8 beb4 552f d02b d830 1e30 2630
00000030: 4836 3f3b cfb4 6f3a 833d a936 79bc 4abd
00000040: 7c2e 8a39 12b2 65a6 dfb8 3535 71bb c7ba
00000050: 5037 eab8 0838 5a36 6736 1839 bdb1 47a9
00000060: 082d b4ae 4f29 8c28 3430 86b1 ec24 b331
00000070: 172e 46a5 bca4 b9ac b733 3531 a1b0 9324
00000080: 18ac e428 ff25 182b d820 ff28 51aa 082d
00000090: 6538 e839 393b 3eb2 bc3a 7cb6 22b2 c9b5
000000a0: 4a20 4ab3 c83a 2d2e d92e 1230 27b4 d5b4
000000b0: 7eb2 cd3c ebb6 3e34 d8b4 4c33 4fad cab3
000000c0: aeb1 7aad 84ac 86ac f324 b535 aa2e b2b0
000000d0: 2535 5cb8 d631 ccb2 c8b6 79b8 2035 1f35
000000e0: ccad caae de93 6a30 6235 5322 1931 791e
000000f0: e099 01b4 35ac 8da6 7220 74ad beae 2ba5
00000100: 5eac c432 13af eda8 7c34 0a34 58b0 3f2b
00000110: 86b2 809d 802d 7230 b1b4 58ad 25a7 de28
00000120: 722b e525 8430 9fae 0a31 68b1 882b 12a9
00000130: c324 63a8 742e caac 1e2c 6a1b b331 2da8
00000140: c619 ba2c 87a9 2f2c b2ae 2e2a aaa5 94ab
00000150: 3f2d 2928 39b0 5fb2 9528 d6af 29ad 5429
00000160: 3222 4a2a d52e 962c 8bb4 3026 8ea6 8e2b
00000170: f6b3 5bb0 49a8 f134 1e2a 3bac 86ae 9030
00000180: 122e 9333 e9b2 41b2 65b2 252b d3ad 8fab
00000190: b734 afb0 b330 0134 fbb6 d7a2 f431 f9ac
000001a0: 82b4 c3ad 7bad 112f fd2c c034 8fa7 29a7
000001b0: 0fa8 8634 f730 10b4 0eb6 27af bfb5 4938
000001c0: c537 c328 1a35 592b ef39 e3b1 9c34 4ab6
000001d0: b338 32b4 e52f 79a4 0334 3ab8 57af de3c
000001e0: 0fae 132b 05b1 ea2e 76a8 9f34 fc29 2631
000001f0: 1f32 cbaa fe30 25b0 f5af 4d34 9235 2bb8
0.1044 0.1414 0.4287 -0.413 -0.07104 -0.8564 0.3772 0.07294
0.01938 -0.11053 0.002224 0.03033 0.1676 -0.1002 -0.0839 0.06238
-0.0656 -0.03772 -0.2964 0.11456 0.06104 0.1514 0.1287 0.1296
0.3926 0.906 -0.3005 0.804 1.378 0.4163 -1.118 -1.322
0.1013 0.6924 -0.1897 -0.02498 -0.609 0.3254 -0.93 -0.847
0.457 -0.6143 0.504 0.397 0.4001 0.6367 -0.1793 -0.04123
0.0786 -0.10474 0.04147 0.03552 0.1313 -0.1726 0.01923 0.1781
0.09515 -0.0206 -0.0185 -0.0738 0.2411 0.1627 -0.1447 0.01787
-0.06396 0.0382 0.02342 0.05542 0.00946 0.03903 -0.04935 0.0786
0.5493 0.7383 0.903 -0.1951 0.842 -0.4053 -0.1917 -0.3616
0.00838 -0.2278 0.8477 0.0965 0.107 0.1272 -0.2595 -0.302
-0.2029 1.2 -0.4324 0.2651 -0.3027 0.228 -0.08295 -0.2434
-0.1775 -0.0856 -0.07056 -0.0707 0.01933 0.3567 0.1041 -0.1467
0.3215 -0.545 0.1824 -0.2124 -0.4238 -0.559 0.3203 0.32
-0.0906 -0.1061 -0.0009604 0.138 0.3364 0.01235 0.1593 0.00632
-0.002869 -0.2502 -0.06573 -0.02559 0.00868 -0.0852 -0.10535 -0.02019
-0.06824 0.2114 -0.11053 -0.03848 0.2803 0.2524 -0.1357 0.0566
-0.2039 -0.00537 0.08594 0.1389 -0.2932 -0.0835 -0.02791 0.03802
0.05817 0.02303 0.1411 -0.10345 0.1575 -0.169 0.05884 -0.0396
0.0186 -0.03427 0.1008 -0.0748 0.06433 0.00362 0.1781 -0.03262
0.00282 0.07385 -0.04318 0.06537 -0.1046 0.04828 -0.02213 -0.0592
0.082 0.0325 -0.132 -0.1991 0.0358 -0.12244 -0.0806 0.04163
0.0121 0.04913 0.10675 0.07166 -0.284 0.02417 -0.0256 0.05902
-0.2488 -0.1361 -0.03348 0.3088 0.0478 -0.0661 -0.1019 0.1426
0.09485 0.2367 -0.216 -0.1954 -0.1998 0.05582 -0.091 -0.05905
0.2947 -0.1464 0.1469 0.2502 -0.4363 -0.01336 0.186 -0.0777
-0.2817 -0.09 -0.08563 0.1104 0.07794 0.2969 -0.02953 -0.02797
-0.0317 0.2827 0.1552 -0.254 -0.3784 -0.11176 -0.3591 0.5356
0.4856 0.0372 0.3188 0.0574 0.7417 -0.184 0.288 -0.393
0.5874 -0.2622 0.12335 -0.01747 0.2507 -0.5283 -0.1147 1.217
-0.09467 0.05527 -0.1569 0.10803 -0.03485 0.2888 0.04675 0.1609
0.1913 -0.05307 0.156 -0.1295 -0.1243 0.2688 0.3481 -0.521

conv2d_7/Bias f2 [88]
00000000: f935 7839 ea3a 69b5 f136 bb35 453c da36
00000010: f439 3937 0fb6 f4b2 a938 113a 9a3b 9e3c
00000020: 46b1 713d 2d3e 353c 7b3d 943b 36be 9a38
00000030: a2b9 f93c 0eb8 693a c835 6d3a 5a3c 4039
00000040: 243c ab37 8734 5a36 793a 7d3c 8539 973b
00000050: 72b3 a138 a136 3938 743b 8a2a 4239 3c38
00000060: e43a 9231 3d2e ef38 c63c 4a3d d43d 3d3c
00000070: f23c 1535 bbbb f039 66b1 452e 5e3a e733
00000080: b632 133c b43a 89b6 f0af c33a d7bd 70b8
00000090: cea6 9b39 2b39 63a8 26b9 383d b4b8 013c
000000a0: 743d d131 6e3a 4594 213b 8838 713b 503c
0.3733 0.6836 0.8643 -0.3381 0.4338 0.3582 1.067 0.4282
0.744 0.4514 -0.3787 -0.2173 0.5825 0.7583 0.95 1.154
-0.1648 1.36 1.544 1.052 1.37 0.9473 -1.553 0.575
-0.704 1.243 -0.507 0.8013 0.3613 0.803 1.088 0.6562
1.035 0.4792 0.283 0.397 0.809 1.122 0.69 0.9487
-0.2327 0.5786 0.4143 0.528 0.9316 0.0511 0.657 0.5293
0.8613 0.1741 0.0975 0.6167 1.193 1.322 1.457 1.06
1.236 0.3176 -0.9663 0.742 -0.1687 0.09796 0.796 0.247
0.2097 1.019 0.838 -0.4084 -0.124 0.845 -1.46 -0.5547
-0.02658 0.7007 0.646 -0.03427 -0.6436 1.305 -0.588 1.001
1.363 0.1818 0.8037 -0.001042 0.891 0.5664 0.93 1.078

depthwise_conv2d_2/Kernel f2 [1, 3, 3, 88]
00000000: d2b2 5ba5 a4bb 21ac bea7 c335 74ad 70b2
00000010: c2b4 9b25 d22c d3b8 c638 1338 e2b3 0bad
00000020: 30b0 81b6 1bb0 4c36 f82f 52ad 3f28 13bf
00000030: 9abc 8441 1abc 7eb4 1eae 7238 00b9 bfa4
00000040: 17b2 d52b 3730 5db7 79b6 41ba 933c db36
00000050: 35b4 c4b2 83b1 d2ae f4b9 59b2 2b31 0cb9
00000060: 78b6 c035 a8ac 72b7 d5b8 15c0 39b0 5f21
00000070: 5536 09b9 13b8 3d37 e21d 5db5 0234 b3ad
00000080: e2b7 d6b0 dd2f e3b2 fb3b efb0 6aa9 3430
00000090: db39 b0b4 7538 3939 39b8 693b 772b eb28
000000a0: 30b9 ebb4 bab8 66b0 9d31 60b1 eeb5 3bb8
000000b0: 5bb5 01ae 46bc 4535 3ea5 66ab 09b0 2abb
000000c0: a530 f128 86aa 312b 2fbc bf3e 9fb5 48b5
000000d0: c6b6 7bb0 1236 db2a 683c 05b7 c9b1 2d3c
000000e0: 103b c0be f93d b029 3e10 53bf a8b9 bab6
000000f0: 0ab5 8f2f 1338 68b8 42ba 3332 3bb0 733d
00000100: 0333 383c ebb6 1b9d 6cbc 90b4 f136 3c28
00000110: 96b5 3c3d c934 4daf d6ba 063d 90b1 052b
00000120: 2435 143d 5dad b1b3 2fa9 93b4 3b35 c4b5
00000130: 0930 45be 743a eb33 683b ceb3 5431 03b7
00000140: 6e3f 3db1 433d 69b2 beb5 0e30 7db7 7335
00000150: bebd 7fb0 ef3a f3b5 2fb8 a8b6 00be 04b9
00000160: 4db5 aaa8 61b6 afad c7a9 ba94 4327 80b1
00000170: 5031 15b4 f235 fdb4 78b9 712a 9a2c 1a31
00000180: fe2f a435 67b3 6db7 d537 1532 b9aa 8131
00000190: f1b4 23bc 54bb 9228 0539 b534 d2b1 c4af
000001a0: 4e27 2128 a72b b230 37b2 0c37 63be 4f32
000001b0: e820 8fb8 a5aa 1ab2 2bb6 b3b0 0f2e ffb6
000001c0: 6423 7837 532f 8934 22b4 aa36 d3ac 8b2a
000001d0: 44b4 51b9 6db6 19b8 9925 bf34 671e 322a
000001e0: 57b0 1830 8c32 ae37 cc2f bf31 81ab 35ac
000001f0: e13c b738 0435 79b1 8231 bbbc 1a24 62a9
-0.2131 -0.02092 -0.955 -0.0645 -0.03024 0.36 -0.0852 -0.2012
-0.2974 0.0219 0.0753 -0.603 0.5967 0.5093 -0.2463 -0.0788
-0.1309 -0.4065 -0.1283 0.3936 0.1245 -0.0831 0.03317 -1.769
-1.15 2.758 -1.025 -0.2808 -0.0956 0.5557 -0.625 -0.01854
-0.1903 0.0612 0.1317 -0.4602 -0.4045 -0.7817 1.144 0.4285
-0.263 -0.2114 -0.1722 -0.10657 -0.744 -0.1984 0.1615 -0.631
-0.4043 0.3594 -0.07275 -0.4653 -0.604 -2.041 -0.132 0.01049
0.3958 -0.6294 -0.5093 0.4524 0.005745 -0.3352 0.2505 -0.08905
-0.4927 -0.1511 0.12286 -0.2152 0.9976 -0.1542 -0.0423 0.1313
0.732 -0.293 0.557 0.653 -0.528 0.9263 0.05832 0.03842
-0.6484 -0.3074 -0.591 -0.1375 0.1754 -0.168 -0.3706 -0.529
-0.3347 -0.0938 -1.068 0.3293 -0.02048 -0.0578 -0.1261 -0.8955
0.1451 0.0386 -0.05096 0.05618 -1.046 1.687 -0.3513 -0.33
-0.4233 -0.14 0.3794 0.05356 1.102 -0.4387 -0.1808 1.044
0.883 -1.6875 1.493 0.04443 0.000518 -1.831 -0.707 -0.4204
-0.315 0.1181 0.5093 -0.551 -0.782 0.1937 -0.1322 1.362
0.2191 1.055 -0.4324 -0.004986 -1.105 -0.2852 0.4338 0.03308
-0.349 1.309 0.299 -0.1141 -0.8545 1.256 -0.1738 0.05484
0.3213 1.27 -0.0838 -0.2404 -0.0405 -0.286 0.327 -0.3604
0.1261 -1.567 0.8066 0.2474 0.926 -0.2439 0.1665 -0.4382
1.857 -0.1637 1.315 -0.2003 -0.359 0.1267 -0.468 0.3406
-1.436 -0.1405 0.8667 -0.3718 -0.523 -0.416 -1.5 -0.627
-0.3313 -0.03644 -0.3987 -0.0888 -0.04514 -0.001154 0.02837 -0.1719
0.166 -0.2551 0.3716 -0.3118 -0.6836 0.05032 0.0719 0.1594
0.1249 0.3525 -0.2313 -0.464 0.4895 0.1901 -0.05252 0.172
-0.3088 -1.034 -0.916 0.0357 0.6274 0.2942 -0.1819 -0.12134
0.02853 0.03226 0.05978 0.1467 -0.1942 0.4404 -1.597 0.1971
0.00958 -0.57 -0.0519 -0.1907 -0.3855 -0.1469 0.09467 -0.4373
0.014435 0.4668 0.11444 0.2834 -0.2583 0.4165 -0.0754 0.05112
-0.2666 -0.6646 -0.4016 -0.512 0.02187 0.2966 0.006252 0.0484
-0.1356 0.1279 0.2046 0.48 0.1218 0.1796 -0.05862 -0.06573
1.22 0.5894 0.3135 -0.171 0.1721 -1.183 0.01602 -0.04205

depthwise_conv2d_2/Bias f2 [88]
00000000: 4db4 9c3a 6eba bfbb 96b9 fdbc 64aa d7b5
00000010: e83d c733 0aae b83d e140 54af 8138 4640
00000020: c53a 43ab cebc ac34 a7b2 533b f03b 3f35
00000030: f2b5 3a33 52bb aeb1 13a8 bc3d 0f3c e83e
00000040: 6740 b5b9 c1b8 b63e 053c cda2 d83f 25b0
00000050: 49b9 5840 3c3e fe27 0b39 203c 703c d73d
00000060: d2b4 06b5 cb3b 1da9 92b7 4826 c03f 8440
00000070: a631 4039 4db6 3e2c 96aa 432a 0725 2a3e
00000080: 193f 0db0 66c3 feb7 5aba e729 30b9 da3f
00000090: 0bb4 db36 482d ed2f ea40 042d 7d3d 43b7
000000a0: 3f28 b53a 482f dc3c 012b b629 032b b23e
-0.2688 0.826 -0.8037 -0.9683 -0.698 -1.247 -0.04993 -0.365
1.477 0.243 -0.09436 1.43 2.44 -0.1145 0.563 2.137
0.846 -0.05673 -1.201 0.292 -0.2079 0.9155 0.992 0.328
-0.3716 0.2258 -0.915 -0.1775 -0.03183 1.434 1.015 1.727
2.201 -0.7134 -0.594 1.678 1.005 -0.01328 1.961 -0.1295
-0.6606 2.172 1.559 0.03122 0.6304 1.031 1.109 1.46
-0.3013 -0.314 0.974 -0.03995 -0.4731 0.02454 1.9375 2.258
0.1765 0.6562 -0.3938 0.0663 -0.05145 0.04892 0.01964 1.541
1.774 -0.1266 -3.7 -0.4995 -0.794 0.0461 -0.6484 1.963
-0.2527 0.4285 0.0825 0.12384 2.457 0.07837 1.372 -0.4539
0.03317 0.8384 0.1138 1.215 0.05472 0.04462 0.05478 1.674

conv2d_8/Kernel f2 [24, 1, 1, 88]
00000000: eb2d 70b3 402f ffb0 5925 55aa c8a0 5aac
00000010: 03b1 cbb0 6e27 fbaa ffac 4932 e6b4 e632
00000020: fd26 c4a3 d7b0 78b8 7a32 7729 d82e e8ad
00000030: b62a a3b2 3434 4db3 5daf e62b 672e a9b2
00000040: 342d cdae cd2a c7aa 3a26 04a2 492e 36b3
00000050: 2fb3 9133 20b5 c7b0 582c 13ae 3135 38ad
00000060: a422 972b 5fae 951f 3626 0bb1 d2b1 adb0
00000070: 2c33 1bac e331 4b26 42ab 5229 bfa5 1b34
00000080: 7c2a 042a 12ab e12c 91a7 b290 efaf b72f
00000090: 5932 e92e a5a6 0031 1534 a1ac 1ab5 e0b4
000000a0: 6134 88b1 caac d9b0 182f 82a3 f432 07ab
000000b0: fdaf 87a9 862a fb2e f133 d5af 0d2b 1f2a
000000c0: 8f2e a331 6e27 9fb4 be2e cb29 682c e595
000000d0: 91b0 96ac 10b0 0134 4ca4 ad33 f6ad 27aa
000000e0: 54a2 1228 2530 5e34 7d2c eda8 2ca7 90b5
000000f0: a22c a931 9f36 b8af fb34 22b5 6622 d431
00000100: 48aa 6d24 eeaf f230 aa2c 5a33 2f31 7034
00000110: ddb1 20a8 f3ad 3fb0 11ae c82e a833 4cae
00000120: 6c38 adb3 6d36 5631 2eb4 6534 15b2 822d
00000130: f9a4 78b0 51b4 6e2a 74ab d0ac 6ea4 9eb0
00000140: 1934 34b2 f330 f130 0f32 c52c 9516 e2b3
00000150: 8cad 9f24 57b4 6c2d 5b29 df2c 2ca1 b02a
00000160: e52d 7fac 6432 10b4 d59e a02d e133 a2af
00000170: 8e20 bc30 a628 f7b1 53b1 1c33 c4aa 1db4
00000180: 58b6 df34 1e31 f82b 0daa a0b3 982f 6431
00000190: f5a8 e432 0732 3d33 23b1 87b0 b832 fa31
000001a0: c3ad 9bb1 26b1 80a5 b334 4734 972e d8ad
000001b0: fb25 b4b2 afab 0434 2eb0 0caf d0ae d4ac
000001c0: 70ae e731 3031 7132 42ab 3a35 16a9 e1ac
000001d0: efab 6fa3 2931 172d 12a6 49a8 7534 0dae
000001e0: 5334 c302 9730 db29 4faf fc2c 50af 00af
000001f0: 66b2 50a3 ad34 6427 6330 832e be25 74a6
0.09247 -0.2324 0.1133 -0.1561 0.02089 -0.04947 -0.00934 -0.068
-0.1566 -0.1498 0.02902 -0.05453 -0.07806 0.1964 -0.3062 0.2156
0.0273 -0.01517 -0.1512 -0.5586 0.2024 0.0427 0.10693 -0.0923
0.05243 -0.2074 0.2627 -0.2281 -0.11505 0.0617 0.10004 -0.2081
0.0813 -0.10626 0.05313 -0.05295 0.02432 -0.01175 0.0982 -0.2253
-0.2245 0.2365 -0.3203 -0.1493 0.0679 -0.0949 0.3245 -0.08154
0.01297 0.0593 -0.09955 0.007404 0.02426 -0.1576 -0.1819 -0.1461
0.2241 -0.06415 0.184 0.02458 -0.0567 0.04156 -0.02245 0.2566
0.05066 0.047 -0.05524 0.07623 -0.02956 -0.000573 -0.12396 0.12054
0.1984 0.108 -0.02596 0.1562 0.2551 -0.0723 -0.3188 -0.3047
0.2737 -0.1729 -0.0748 -0.1515 0.11084 -0.01466 0.2173 -0.0549
-0.1248 -0.04318 0.05096 0.1091 0.2482 -0.1224 0.05508 0.04782
0.1025 0.1761 0.02902 -0.2888 0.10535 0.04526 0.06885 -0.001439
-0.1427 -0.07166 -0.127 0.2502 -0.01678 0.2399 -0.09314 -0.04807
-0.01236 0.0318 0.1295 0.273 0.0701 -0.03848 -0.02802 -0.3477
0.0724 0.1769 0.4138 -0.1206 0.3113 -0.3208 0.0125 0.1821
-0.04907 0.01729 -0.1239 0.1545 0.0729 0.2297 0.162 0.2773
-0.1832 -0.03223 -0.09296 -0.1327 -0.0948 0.10596 0.2393 -0.0984
0.5527 -0.2399 0.4016 0.1667 -0.2612 0.2747 -0.1901 0.08606
-0.01942 -0.1396 -0.2698 0.05023 -0.05823 -0.0752 -0.0173 -0.1443
0.256 -0.1938 0.1547 0.1544 0.1893 0.0745 0.001607 -0.2463
-0.0867 0.01805 -0.2712 0.0847 0.04184 0.0761 -0.0101 0.05225
0.0921 -0.07025 0.1997 -0.254 -0.00667 0.0879 0.2462 -0.11926
0.008896 0.148 0.03632 -0.1864 -0.1664 0.2222 -0.05286 -0.257
-0.3965 0.3044 0.1599 0.06226 -0.04727 -0.2383 0.11865 0.1685
-0.03873 0.2153 0.1884 0.2262 -0.1605 -0.1415 0.21 0.1868
-0.09 -0.1752 -0.1609 -0.02148 0.2937 0.2673 0.10297 -0.0913
0.02336 -0.2095 -0.06003 0.251 -0.1306 -0.1101 -0.10645 -0.07544
-0.1006 0.1844 0.1621 0.2013 -0.0567 0.3267 -0.03973 -0.07623
-0.06198 -0.01452 0.1613 0.0795 -0.02371 -0.03348 0.2786 -0.09454
0.2703 4.214e-05 0.1434 0.04575 -0.1142 0.0779 -0.11426 -0.1094
-0.2 -0.01428 0.2922 0.02887 0.1371 0.10175 0.02243 -0.0252

conv2d_8/Bias f2 [24]
00000000: 3db6 fdb9 21bd 6140 f7be 83be 3b3d f338
00000010: d83e 2db0 ca31 bcb8 0ba6 213c 2440 4c2f
00000020: 0440 263c f43f a73a 5cb9 173a 31bc 6134
-0.39 -0.7485 -1.282 2.19 -1.741 -1.628 1.308 0.6187
1.711 -0.1305 0.1809 -0.592 -0.0236 1.032 2.07 0.114
2.008 1.037 1.988 0.8315 -0.67 0.761 -1.048 0.2737

conv2d_9/Kernel f2 [96, 1, 1, 24]
00000000: 132d f0a8 8f25 3d20 a92a 021f 72a7 c5ae
00000010: 7bad 82a6 7726 c4ad 48a9 34a8 0ca8 d5a3
00000020: 8230 96a8 ff28 fdab 5618 8725 19ad 07a7
00000030: e837 cfb0 442f a8ad 6eb4 f126 50b1 279c
00000040: 9330 26ae d6ad 032e 6dad d32c 3327 9aac
00000050: e29f daaf 0d2b abae 8da9 4832 5b29 182c
00000060: 3734 7fac 7eb0 5bb1 a3ac 99a5 1732 4830
00000070: 1fb2 5bb4 1fad 6d30 c8b0 0cac 6817 4fa1
00000080: d633 1d28 61ac 152c 6bae e1b4 3f9a 8aad
00000090: 6ba9 c7a9 ecb1 5ba4 0eaf 8eb3 23af 8d2e
000000a0: 4631 ff32 aea7 3ca9 1316 8730 2e1f 9e2f
000000b0: 1f28 61a5 b0b0 5d35 5ab1 5a2d fd1c 91b5
000000c0: 58a0 bfa9 2225 8e1e 3f1f f0a0 2da5 a6a0
000000d0: d9ad d927 9e2a e99e fa21 c525 2925 a325
000000e0: 3127 d2a5 7098 4c2b c116 ec27 1b26 a89f
000000f0: 1f99 2bae 3dad 75b0 5327 712b 31a4 97ab
00000100: ea2d 46b0 3d2b daac 19b0 13ad 431f a730
00000110: 312d 92a4 5426 e9a2 e9a0 3926 02ad 5ea8
00000120: 4fb8 c62f 1c2b 5821 fe33 7bad 6db0 252e
00000130: e2b1 fcb3 cc36 2a30 8132 5fb2 db30 71a7
00000140: 8224 3b25 e630 abaf c335 dcb8 f02f 42b5
00000150: 5c2a f9a6 8b29 b8b3 2e2d 192c 9420 352d
00000160: b9a0 20b0 ce2e 792c ba2c 62a2 68aa c5ad
00000170: 37b1 65a0 19aa c02c c1b0 0432 0c30 cb27
00000180: a426 f730 652c 47b1 8db0 d22c 492a 58a4
00000190: fc26 74a0 cf2d 1a2a 55a9 efad 3eb0 1cad
000001a0: b72f 81ad bab3 fcb0 1631 2aac 9ea5 a717
000001b0: 3caf 1cb1 fc30 c8b0 45b0 6a2d 6c2c 19af
000001c0: 43a6 34ae 62b2 79b2 512d 002d 802d a0b5
000001d0: 6632 ef34 7534 b82f 97b2 63a8 7f32 7131
000001e0: e4b4 e5b5 e4a1 49b6 3fa8 9932 da31 c5b5
000001f0: 92ac c2b4 44ae 7b32 8ea8 60ab 6135 f8a6
0.0793 -0.03857 0.02171 0.00828 0.05203 0.006844 -0.02908 -0.1058
-0.08563 -0.02542 0.02525 -0.0901 -0.04126 -0.03284 -0.03162 -0.0153
0.1409 -0.03583 0.03903 -0.0624 0.002117 0.02159 -0.07965 -0.02745
0.4941 -0.1503 0.1135 -0.0884 -0.2769 0.02711 -0.166 -0.004055
0.143 -0.09607 -0.0912 0.09393 -0.0848 0.0754 0.02812 -0.0719
-0.007698 -0.1227 0.05508 -0.1042 -0.04337 0.1963 0.04184 0.06396
0.2634 -0.07025 -0.1404 -0.1674 -0.07245 -0.02187 0.1903 0.1338
-0.1913 -0.2722 -0.08 0.1383 -0.1494 -0.06323 0.001808 -0.01037
0.2449 0.03214 -0.0684 0.0638 -0.1003 -0.305 -0.00305 -0.08655
-0.04233 -0.04514 -0.185 -0.01701 -0.1102 -0.2361 -0.1115 0.10236
0.1648 0.2186 -0.03 -0.0409 0.001483 0.1415 0.00701 0.119
0.0322 -0.02101 -0.1465 0.3352 -0.1672 0.0836 0.00487 -0.348
-0.008484 -0.0449 0.02005 0.0064 0.007076 -0.00964 -0.02022 -0.00908
-0.0914 0.03065 0.0517 -0.00675 0.01167 0.02254 0.02016 0.02202
0.02809 -0.02274 -0.002167 0.057 0.001649 0.03094 0.02385 -0.007477
-0.0025 -0.0964 -0.08185 -0.1393 0.02861 0.05814 -0.01637 -0.0593
0.0924 -0.1335 0.05655 -0.0758 -0.128 -0.0793 0.00709 0.1454
0.0811 -0.01785 0.02472 -0.0135 -0.00959 0.0243 -0.07825 -0.03412
-0.5386 0.12146 0.05554 0.01044 0.2498 -0.08563 -0.1383 0.096
-0.1838 -0.2495 0.4248 0.1301 0.2032 -0.1991 0.1517 -0.02907
0.01761 0.02043 0.1531 -0.1198 0.36 -0.6074 0.124 -0.3286
0.04968 -0.02724 0.0433 -0.2412 0.08093 0.064 0.00894 0.08136
-0.009224 -0.1289 0.1063 0.0699 0.07385 -0.01247 -0.05005 -0.09015
-0.163 -0.00858 -0.04764 0.0742 -0.1486 0.188 0.1265 0.03044
0.02594 0.1552 0.06866 -0.1649 -0.1422 0.0753 0.0491 -0.01697
0.02728 -0.0087 0.09076 0.04767 -0.04166 -0.0927 -0.1326 -0.07983
0.12054 -0.086 -0.2415 -0.1558 0.1589 -0.06506 -0.02194 0.001868
-0.11304 -0.1597 0.1558 -0.1494 -0.1334 0.0846 0.0691 -0.1109
-0.02446 -0.0969 -0.1995 -0.2023 0.08307 0.0781 0.08594 -0.3516
0.2 0.3083 0.2786 0.1206 -0.2059 -0.03427 0.203 0.17
-0.3057 -0.3684 -0.011505 -0.3928 -0.03317 0.2062 0.1829 -0.3606
-0.0714 -0.2974 -0.0979 0.2025 -0.03558 -0.05762 0.3362 -0.02722

conv2d_9/Bias f2 [96]
00000000: b03b 563c c731 36ba 6a34 2e40 42b9 9dbc
00000010: 3333 8a2d 45be 41bb 2437 4135 2239 c5bc
00000020: 5ab2 80b8 8d38 7eb8 50bb ff2c d332 24b5
00000030: b53b b339 37ba 503d 3dba e5b8 abb9 4aba
00000040: 4a2e ea39 a335 2eb6 3a3d 58b9 3b3d 11b2
00000050: 0b40 21ad 30bf d2bb 1e23 7e40 d0a9 d2b3
00000060: c137 21b5 ce40 b032 a3bf 0937 f634 7d3d
00000070: a63f 52b1 eb2b 92be f4b4 fbb6 edb8 c036
00000080: a235 a33d 9eb4 f83b 6637 b13c 9c3c acb5
00000090: 4e3d 4fb5 c139 f1a7 e33e 963c 8f3f 4a3e
000000a0: ef37 8cb3 72b0 e43c eea2 1db9 9430 34b9
000000b0: 13b4 cdb1 f839 1dab 703c cd3a a83e 48b6
0.961 1.084 0.1805 -0.7764 0.276 2.09 -0.657 -1.153
0.225 0.08655 -1.567 -0.9067 0.4463 0.3284 0.6416 -1.192
-0.1985 -0.5625 0.569 -0.5615 -0.914 0.07806 0.2133 -0.3213
0.9634 0.7124 -0.777 1.328 -0.78 -0.612 -0.7085 -0.786
0.09827 0.7393 0.3523 -0.3862 1.307 -0.668 1.308 -0.1896
2.021 -0.08014 -1.797 -0.9775 0.0139 2.246 -0.0454 -0.2444
0.4846 -0.3206 2.402 0.209 -1.909 0.4397 0.31 1.372
1.912 -0.1663 0.06186 -1.643 -0.3096 -0.4363 -0.6157 0.4219
0.352 1.409 -0.2886 0.996 0.4624 1.173 1.152 -0.3545
1.326 -0.3318 0.719 -0.03102 1.722 1.146 1.89 1.572
0.4958 -0.2358 -0.1389 1.223 -0.013535 -0.639 0.1431 -0.6504
-0.2546 -0.1813 0.746 -0.05557 1.109 0.85 1.664 -0.3926
